Model: "model_1"
_________________________________________________________________
 Layer (type)                Output Shape              Param #
=================================================================
 input (InputLayer)          [(None, 1024, 64, 1)]     0
 conv2d_5 (Conv2D)           (None, 1024, 64, 16)      160
 batch_normalization_5 (Batc  (None, 1024, 64, 16)     64
 hNormalization)
 leaky_re_lu_5 (LeakyReLU)   (None, 1024, 64, 16)      0
 max_pooling2d_3 (MaxPooling  (None, 512, 32, 16)      0
 2D)
 conv2d_6 (Conv2D)           (None, 512, 32, 32)       4640
 batch_normalization_6 (Batc  (None, 512, 32, 32)      128
 hNormalization)
 leaky_re_lu_6 (LeakyReLU)   (None, 512, 32, 32)       0
 max_pooling2d_4 (MaxPooling  (None, 256, 16, 32)      0
 2D)
 dropout_4 (Dropout)         (None, 256, 16, 32)       0
 conv2d_7 (Conv2D)           (None, 256, 16, 48)       13872
 batch_normalization_7 (Batc  (None, 256, 16, 48)      192
 hNormalization)
 leaky_re_lu_7 (LeakyReLU)   (None, 256, 16, 48)       0
 max_pooling2d_5 (MaxPooling  (None, 128, 8, 48)       0
 2D)
 dropout_5 (Dropout)         (None, 128, 8, 48)        0
 conv2d_8 (Conv2D)           (None, 128, 8, 64)        27712
 batch_normalization_8 (Batc  (None, 128, 8, 64)       256
 hNormalization)
 leaky_re_lu_8 (LeakyReLU)   (None, 128, 8, 64)        0
 dropout_6 (Dropout)         (None, 128, 8, 64)        0
 conv2d_9 (Conv2D)           (None, 128, 8, 80)        46160
 batch_normalization_9 (Batc  (None, 128, 8, 80)       320
 hNormalization)
 leaky_re_lu_9 (LeakyReLU)   (None, 128, 8, 80)        0
 reshape_1 (Reshape)         (None, 128, 640)          0
 bidirectional_5 (Bidirectio  (None, 128, 512)         1837056
 nal)
 bidirectional_6 (Bidirectio  (None, 128, 512)         1574912
 nal)
 bidirectional_7 (Bidirectio  (None, 128, 512)         1574912
 nal)
 bidirectional_8 (Bidirectio  (None, 128, 512)         1574912
 nal)
 bidirectional_9 (Bidirectio  (None, 128, 512)         1574912
 nal)
 dropout_7 (Dropout)         (None, 128, 512)          0
 dense_1 (Dense)             (None, 128, 72)           36936
=================================================================
Total params: 8,267,144
Trainable params: 8,266,664
Non-trainable params: 480
_________________________________________________________________
296
Epoch 1/1000

































296/296 [==============================] - ETA: 0s - loss: 208.6832
Epoch 00001: val_loss improved from inf to 320.37262, saving model to ../output/khatt/puigcerver/checkpoint_weights_30_10_2021_deskewd_cropped_from_all_sides.hdf5
…
