Model: "model_1"
_________________________________________________________________
Layer (type)                 Output Shape              Param #
=================================================================
input (InputLayer)           [(None, 1024, 64, 1)]     0
_________________________________________________________________
conv2d_6 (Conv2D)            (None, 512, 32, 16)       160
_________________________________________________________________
p_re_lu_6 (PReLU)            (None, 512, 32, 16)       16
_________________________________________________________________
batch_normalization_6 (Batch (None, 512, 32, 16)       112
_________________________________________________________________
full_gated_conv2d_5 (FullGat (None, 512, 32, 16)       4640
_________________________________________________________________
conv2d_7 (Conv2D)            (None, 512, 32, 32)       4640
_________________________________________________________________
p_re_lu_7 (PReLU)            (None, 512, 32, 32)       32
_________________________________________________________________
batch_normalization_7 (Batch (None, 512, 32, 32)       224
_________________________________________________________________
full_gated_conv2d_6 (FullGat (None, 512, 32, 32)       18496
_________________________________________________________________
conv2d_8 (Conv2D)            (None, 256, 8, 40)        10280
_________________________________________________________________
p_re_lu_8 (PReLU)            (None, 256, 8, 40)        40
_________________________________________________________________
batch_normalization_8 (Batch (None, 256, 8, 40)        280
_________________________________________________________________
full_gated_conv2d_7 (FullGat (None, 256, 8, 40)        28880
_________________________________________________________________
dropout_3 (Dropout)          (None, 256, 8, 40)        0
_________________________________________________________________
conv2d_9 (Conv2D)            (None, 256, 8, 48)        17328
_________________________________________________________________
p_re_lu_9 (PReLU)            (None, 256, 8, 48)        48
_________________________________________________________________
batch_normalization_9 (Batch (None, 256, 8, 48)        336
_________________________________________________________________
full_gated_conv2d_8 (FullGat (None, 256, 8, 48)        41568
_________________________________________________________________
dropout_4 (Dropout)          (None, 256, 8, 48)        0
_________________________________________________________________
conv2d_10 (Conv2D)           (None, 128, 2, 56)        21560
_________________________________________________________________
p_re_lu_10 (PReLU)           (None, 128, 2, 56)        56
_________________________________________________________________
batch_normalization_10 (Batc (None, 128, 2, 56)        392
_________________________________________________________________
full_gated_conv2d_9 (FullGat (None, 128, 2, 56)        56560
_________________________________________________________________
dropout_5 (Dropout)          (None, 128, 2, 56)        0
_________________________________________________________________
conv2d_11 (Conv2D)           (None, 128, 2, 64)        32320
_________________________________________________________________
p_re_lu_11 (PReLU)           (None, 128, 2, 64)        64
_________________________________________________________________
batch_normalization_11 (Batc (None, 128, 2, 64)        448
_________________________________________________________________
max_pooling2d_1 (MaxPooling2 (None, 128, 1, 64)        0
_________________________________________________________________
reshape_1 (Reshape)          (None, 128, 64)           0
_________________________________________________________________
bidirectional_2 (Bidirection (None, 128, 128)          49920
_________________________________________________________________
dense_2 (Dense)              (None, 128, 128)          16512
_________________________________________________________________
bidirectional_3 (Bidirection (None, 128, 128)          74496
_________________________________________________________________
dense_3 (Dense)              (None, 128, 72)           9288
=================================================================
Total params: 388,696
Trainable params: 387,416
Non-trainable params: 1,280
_________________________________________________________________
Model: "model_2"
_________________________________________________________________
Layer (type)                 Output Shape              Param #
=================================================================
input (InputLayer)           [(None, 1024, 64, 1)]     0
_________________________________________________________________
conv2d_12 (Conv2D)           (None, 512, 32, 16)       160
_________________________________________________________________
p_re_lu_12 (PReLU)           (None, 512, 32, 16)       16
_________________________________________________________________
batch_normalization_12 (Batc (None, 512, 32, 16)       112
_________________________________________________________________
full_gated_conv2d_10 (FullGa (None, 512, 32, 16)       4640
_________________________________________________________________
conv2d_13 (Conv2D)           (None, 512, 32, 32)       4640
_________________________________________________________________
p_re_lu_13 (PReLU)           (None, 512, 32, 32)       32
_________________________________________________________________
batch_normalization_13 (Batc (None, 512, 32, 32)       224
_________________________________________________________________
full_gated_conv2d_11 (FullGa (None, 512, 32, 32)       18496
_________________________________________________________________
conv2d_14 (Conv2D)           (None, 256, 8, 40)        10280
_________________________________________________________________
p_re_lu_14 (PReLU)           (None, 256, 8, 40)        40
_________________________________________________________________
batch_normalization_14 (Batc (None, 256, 8, 40)        280
_________________________________________________________________
full_gated_conv2d_12 (FullGa (None, 256, 8, 40)        28880
_________________________________________________________________
dropout_6 (Dropout)          (None, 256, 8, 40)        0
_________________________________________________________________
conv2d_15 (Conv2D)           (None, 256, 8, 48)        17328
_________________________________________________________________
p_re_lu_15 (PReLU)           (None, 256, 8, 48)        48
_________________________________________________________________
batch_normalization_15 (Batc (None, 256, 8, 48)        336
_________________________________________________________________
full_gated_conv2d_13 (FullGa (None, 256, 8, 48)        41568
_________________________________________________________________
dropout_7 (Dropout)          (None, 256, 8, 48)        0
_________________________________________________________________
conv2d_16 (Conv2D)           (None, 128, 2, 56)        21560
_________________________________________________________________
p_re_lu_16 (PReLU)           (None, 128, 2, 56)        56
_________________________________________________________________
batch_normalization_16 (Batc (None, 128, 2, 56)        392
_________________________________________________________________
full_gated_conv2d_14 (FullGa (None, 128, 2, 56)        56560
_________________________________________________________________
dropout_8 (Dropout)          (None, 128, 2, 56)        0
_________________________________________________________________
conv2d_17 (Conv2D)           (None, 128, 2, 64)        32320
_________________________________________________________________
p_re_lu_17 (PReLU)           (None, 128, 2, 64)        64
_________________________________________________________________
batch_normalization_17 (Batc (None, 128, 2, 64)        448
_________________________________________________________________
max_pooling2d_2 (MaxPooling2 (None, 128, 1, 64)        0
_________________________________________________________________
reshape_2 (Reshape)          (None, 128, 64)           0
_________________________________________________________________
bidirectional_4 (Bidirection (None, 128, 128)          49920
_________________________________________________________________
dense_4 (Dense)              (None, 128, 128)          16512
_________________________________________________________________
bidirectional_5 (Bidirection (None, 128, 128)          74496
_________________________________________________________________
dense_5 (Dense)              (None, 128, 72)           9288
=================================================================
Total params: 388,696
Trainable params: 387,416
Non-trainable params: 1,280
_________________________________________________________________
Model: "model_3"
_________________________________________________________________
Layer (type)                 Output Shape              Param #
=================================================================
input (InputLayer)           [(None, 1024, 64, 1)]     0
_________________________________________________________________
conv2d_18 (Conv2D)           (None, 512, 32, 16)       160
_________________________________________________________________
p_re_lu_18 (PReLU)           (None, 512, 32, 16)       16
_________________________________________________________________
batch_normalization_18 (Batc (None, 512, 32, 16)       112
_________________________________________________________________
full_gated_conv2d_15 (FullGa (None, 512, 32, 16)       4640
_________________________________________________________________
conv2d_19 (Conv2D)           (None, 512, 32, 32)       4640
_________________________________________________________________
p_re_lu_19 (PReLU)           (None, 512, 32, 32)       32
_________________________________________________________________
batch_normalization_19 (Batc (None, 512, 32, 32)       224
_________________________________________________________________
full_gated_conv2d_16 (FullGa (None, 512, 32, 32)       18496
_________________________________________________________________
conv2d_20 (Conv2D)           (None, 256, 8, 40)        10280
_________________________________________________________________
p_re_lu_20 (PReLU)           (None, 256, 8, 40)        40
_________________________________________________________________
batch_normalization_20 (Batc (None, 256, 8, 40)        280
_________________________________________________________________
full_gated_conv2d_17 (FullGa (None, 256, 8, 40)        28880
_________________________________________________________________
dropout_9 (Dropout)          (None, 256, 8, 40)        0
_________________________________________________________________
conv2d_21 (Conv2D)           (None, 256, 8, 48)        17328
_________________________________________________________________
p_re_lu_21 (PReLU)           (None, 256, 8, 48)        48
_________________________________________________________________
batch_normalization_21 (Batc (None, 256, 8, 48)        336
_________________________________________________________________
full_gated_conv2d_18 (FullGa (None, 256, 8, 48)        41568
_________________________________________________________________
dropout_10 (Dropout)         (None, 256, 8, 48)        0
_________________________________________________________________
conv2d_22 (Conv2D)           (None, 128, 2, 56)        21560
_________________________________________________________________
p_re_lu_22 (PReLU)           (None, 128, 2, 56)        56
_________________________________________________________________
batch_normalization_22 (Batc (None, 128, 2, 56)        392
_________________________________________________________________
full_gated_conv2d_19 (FullGa (None, 128, 2, 56)        56560
_________________________________________________________________
dropout_11 (Dropout)         (None, 128, 2, 56)        0
_________________________________________________________________
conv2d_23 (Conv2D)           (None, 128, 2, 64)        32320
_________________________________________________________________
p_re_lu_23 (PReLU)           (None, 128, 2, 64)        64
_________________________________________________________________
batch_normalization_23 (Batc (None, 128, 2, 64)        448
_________________________________________________________________
max_pooling2d_3 (MaxPooling2 (None, 128, 1, 64)        0
_________________________________________________________________
reshape_3 (Reshape)          (None, 128, 64)           0
_________________________________________________________________
bidirectional_6 (Bidirection (None, 128, 128)          49920
_________________________________________________________________
dense_6 (Dense)              (None, 128, 128)          16512
_________________________________________________________________
bidirectional_7 (Bidirection (None, 128, 128)          74496
_________________________________________________________________
dense_7 (Dense)              (None, 128, 72)           9288
=================================================================
Total params: 388,696
Trainable params: 387,416
Non-trainable params: 1,280
_________________________________________________________________
source: ../data/khatt.hdf5
output ../output/khatt/yazeed
target ../output/khatt/yazeed/checkpoint_weights_3_augmented.hdf5
